models/model.pth (torch, 12160 bytes, 4 tensors)

linear1.weight f4 [256, 6]
000000 a6 c4 ba 3e e8 83 8a 3e a8 4f 87 3e 05 51 e7 3c
       0.36478156 0.2705376 0.2642796 0.028236875
000010 e2 ac 0d 3e 02 46 87 3d 91 4f a3 be c0 d2 02 3d
       0.13835481 0.0660515 -0.31896642 0.031939268
000020 b4 b9 b8 bd a8 80 14 be e3 03 a1 be 58 be 2b 3d
       -0.09019795 -0.14502203 -0.31448278 0.041929573
000030 65 25 96 be c0 49 6f bd e8 2b 95 bd 3d 49 cc be
       -0.29325405 -0.058419943 -0.07283765 -0.39899626
000040 cc fb 0b 3e 08 57 82 be a9 b8 00 be df d7 6b be
       0.13670272 -0.25457025 -0.12570442 -0.23031567
000050 e7 2b 2c 3e 91 e7 c5 3d 85 c8 cd be 23 03 05 3d
       0.16813622 0.096633084 -0.40192047 0.032473695
000060 f1 93 8b 3e c2 23 37 be 53 a0 a4 3e 40 90 4b bc
       0.27261308 -0.17884734 0.32153568 -0.012424529
000070 91 fd 74 be 28 55 04 3d 3d b7 bb 3c 8f 4f c2 be
       -0.23924853 0.032307774 0.022914523 -0.37951323
000080 be fe 27 3e d8 c6 a0 be ba 00 6c be aa 99 db bd
       0.1640577 -0.31401706 -0.23047152 -0.107226685
000090 4b 8c 6c 3d e3 7a 85 be da 79 e0 3d 5f 39 b4 be
       0.05775098 -0.26070318 0.10960741 -0.3520002
0000a0 53 fa ea 3d e9 0e b0 3d 9c 3f 8d be 19 15 6b bd
       0.11473527 0.08596594 -0.27587593 -0.057393167
0000b0 00 4f ea bd 48 a4 a1 3d d4 9c 3c be 3e 7a 79 3c
       -0.11440849 0.07892662 -0.184192 0.015226899
0000c0 8b 74 23 3e 53 3b b5 bd 14 3a 36 bd b9 51 84 be
       0.15962426 -0.08849206 -0.04448898 -0.258436
0000d0 2f 6f 45 3e be d0 fb 3d ea 1f 7c be fb de ba 3c
       0.19280694 0.12295674 -0.24621549 0.022811403
0000e0 4e 61 51 3d 69 ec b1 3d ef 55 8d 3e c8 d3 71 be
       0.051118188 0.0868767 0.27604625 -0.23615944
0000f0 9a f0 09 be 60 b9 a8 bc 86 6b 11 3e f7 d8 30 be
       -0.13470688 -0.020596206 0.14201173 -0.17270266
000100 77 a6 2a be a4 6d 4b bd ca b7 2d be fb bd 82 3d
       -0.16665064 -0.04966511 -0.16964641 0.06383892
000110 af 2e 2d 3e e5 fd 2e 3e 49 c0 23 3e cb a7 98 bd
       0.1691234 0.1708904 0.1599132 -0.07453879
000120 ff c7 f5 bd 09 bf 67 3e 56 98 0b bd 18 90 d8 be
       -0.12001037 0.22631468 -0.034080826 -0.42297435
000130 41 f6 a0 3c a5 de 1c bb 6c 08 f5 bd 66 3b 95 3e
       0.019648673 -0.0023936417 -0.11964497 0.2914688
000140 d8 0f a3 be e2 ff 7a bd d4 40 cf be 28 82 25 3e
       -0.31848025 -0.061279185 -0.40479147 0.16162932
000150 e0 ce 01 be 32 f2 8b be 63 2c 0a 3e c3 d9 06 3e
       -0.12676573 -0.27333218 0.13493495 0.13169007
000160 0c 93 ff 3d 4f ee 2c 3d ab 01 80 be 40 f5 78 3e
       0.12479219 0.042219456 -0.25001273 0.24312305
000170 82 db 91 3e 0f d9 aa be 5b 83 85 be c1 6e 4f bd
       0.28487784 -0.33368728 -0.2607678 -0.050642733
000180 af b9 34 3e 58 d4 e5 3d e8 29 b8 3e 0d 74 9c 3e
       0.17648958 0.11222142 0.35969472 0.3055729
000190 61 3d 2a be 49 fc ca 3e 8c 79 b7 be f8 df a9 be
       -0.16624977 0.39645603 -0.3583492 -0.33178687
0001a0 3c c3 16 be 62 9f 49 be 60 97 93 be 4d 81 71 be
       -0.14722914 -0.19689706 -0.28826427 -0.2358448
0001b0 ca f8 bd 3d c8 a8 3c 3d 8b f5 1b 3d dd 5f c9 be
       0.092759684 0.0460594 0.038075965 -0.3933095
0001c0 ab 60 81 be 6b 3a b1 3e 44 85 83 3e 49 64 b1 be
       -0.25269064 0.34614882 0.2568761 -0.34646824
0001d0 a0 47 83 be a2 93 c8 be a0 7e b8 be 84 f1 bb be
       -0.25640583 -0.39175135 -0.36034107 -0.367077
0001e0 d8 47 fd 3d 60 84 c8 be 65 57 91 3e c0 69 7b 3c
       0.12367219 -0.39163494 0.2838699 0.015345037
0001f0 57 94 c6 be 1b f7 cf be 04 43 b1 bd a5 2d 96 3e
       -0.3878505 -0.40618214 -0.0865536 0.293317
000200 bf e1 cd 3d 89 69 57 be e6 61 ea 3d a1 9f 68 3e
       0.10052823 -0.21036352 0.11444454 0.22717144
000210 f1 95 2e be 4d e9 a9 be 06 21 82 be 14 ba 9c 3e
       -0.17049386 -0.33185807 -0.2541582 0.30610716
000220 43 73 dc 3c 8c 8d 6b 3e c7 d4 41 3d 48 d1 02 3e
       0.02691043 0.23003215 0.04732206 0.12775147
000230 48 ee b4 3e 06 b4 a2 be e2 27 ba be ae 62 ac be
       0.35338044 -0.31777972 -0.36358553 -0.33669037
000240 53 ad 85 3e 8f 8e 86 3e 22 c3 00 3e bf f2 9c 3e
       0.26108798 0.2628064 0.12574437 0.3065395
000250 24 26 80 3d f8 ae 99 3e a6 63 60 3d d8 5a 93 bd
       0.06257275 0.30016303 0.054782532 -0.071950614
000260 53 9c 6f 3e 1c d7 59 be 14 34 c6 bd ff 42 3e 3d
       0.23399477 -0.21273464 -0.09677902 0.04645061
000270 7b f7 a9 be a7 b5 b1 be 03 9b 81 3e e3 fc 51 3e
       -0.33196625 -0.34708902 0.25313577 0.20506625
000280 a1 45 3c 3e 7b 40 35 be b4 14 b5 bd 6c 29 49 be
       0.18385936 -0.17700379 -0.088418394 -0.19644707
000290 af ff b9 be 63 fc 72 be 7a c1 21 be e8 20 47 bd
       -0.36327884 -0.2372909 -0.15796462 -0.048615366
0002a0 58 d1 8b be d2 9d a4 be 91 d4 9d 3d ca 4b 6a be
       -0.27308154 -0.32151657 0.077065594 -0.22880474
0002b0 fd 87 91 3d 80 f7 82 3c 02 8b b1 3e 91 0f 73 be
       0.07106016 0.015987158 0.34676367 -0.23736407
0002c0 2f eb 55 3e ab 32 7f bd 4b ff 6b 3e 37 03 13 3e
       0.20890497 -0.06230418 0.23046605 0.14356695
0002d0 a7 a1 ab be ec 9b ae bd 2c 74 9a 3d 48 c9 97 bd
       -0.33521768 -0.085258335 0.07541689 -0.07411438
0002e0 a1 8f 04 3e 30 69 aa bd 10 bb df bd 23 74 c8 be
       0.12945415 -0.08320844 -0.10924351 -0.39151105
0002f0 c5 90 24 bd 64 c5 5a be 48 8c c2 3e bc c4 20 be
       -0.040177125 -0.21364361 0.3799765 -0.15700048
000300 13 c3 b7 be c0 7f 20 3e 38 eb 8c 3e bc d9 d5 bd
       -0.35891017 0.15673733 0.27523208 -0.1044192
000310 ba 32 62 3d d0 d0 df bd 8c 4d 4c 3e 91 e4 4e be
       0.055224158 -0.109285 0.19951457 -0.20204379
000320 df c5 a3 be fd ec 94 be 80 91 d3 3b 80 ad d9 3b
       -0.319869 -0.29087058 0.006456554 0.0066429973
000330 16 28 1e 3e dc 04 c3 3e 4a 50 3e 3e 60 19 7b be
       0.15444979 0.38089645 0.18585315 -0.24521399
000340 3e 17 c1 be 2c 10 1c be f2 41 a1 3e a4 6a ba 3e
       -0.37713045 -0.15240544 0.31495625 0.36409485
000350 93 ae ad 3d c8 da cd 3d 53 b9 f8 3d d8 a8 94 be
       0.08480563 0.10051495 0.12144723 -0.29035068
000360 77 42 7d 3d 5f 13 5e 3e 41 aa 97 3e 80 58 98 be
       0.061830964 0.21687077 0.2962208 -0.2975502
000370 24 32 a2 be 59 b4 23 bd 9a a9 2d be 8d 00 ef 3c
       -0.3167888 -0.039966915 -0.16959229 0.029175067
000380 33 33 8c be 56 dc d8 3c e5 13 c5 3b 0c 47 58 be
       -0.27382812 0.026472252 0.0060143345 -0.21120852
000390 a1 0a 64 be 04 95 bd bd 83 65 67 3d f8 cf 55 be
       -0.2226968 -0.09256938 0.056493293 -0.20880115
0003a0 fd 54 30 3e cc 9b 62 3e 99 f6 b9 3e 59 7a 8d be
       0.1721992 0.22129744 0.36320952 -0.27632406
0003b0 95 98 a3 3e 76 7c ba 3d cd 31 21 bd 4a 62 a4 be
       0.31952348 0.0910577 -0.039354134 -0.3210624
0003c0 0e 53 99 3e 10 48 e9 bd 15 a3 98 3d ea cf 16 be
       0.29946178 -0.11390698 0.074529804 -0.1472775
0003d0 df 7f c6 be 98 c4 53 3e d2 8d 3c be bb 4a 47 be
       -0.38769433 0.20680463 -0.18413475 -0.19462101
0003e0 a5 12 6b be 67 0c 5b bd b5 1d 8a 3e 42 2a ab 3d
       -0.22956331 -0.053478625 0.2697579 0.083576694
0003f0 6f a7 a5 3e f1 c5 49 be 6e b4 ac be 12 d2 9c be
       0.32354304 -0.19704415 -0.33731407 -0.3062902

linear1.bias f4 [256]
000000 0e 5d 9c be 03 1f 9c be 55 80 cf be 53 e6 4f 3d
       -0.30539745 -0.3049241 -0.40527597 0.050756764
000010 81 3c aa be 4e ff a2 3e 9e 49 a6 be 35 54 1b 3d
       -0.33249286 0.31835407 -0.3247804 0.037922103
000020 a8 42 89 3e c9 5c b7 bc de d9 2e bd ae a3 2f bd
       0.26808667 -0.02238311 -0.042688243 -0.042880706
000030 95 2a 17 3e f7 62 d6 be 06 3d 65 3e 30 3d e6 3d
       0.14762338 -0.4187238 0.2238656 0.11242139
000040 4e 09 28 be 01 ab 45 be 19 c3 35 3e 14 4d 87 3e
       -0.164098 -0.19303514 0.17750205 0.26425993
000050 c7 db 62 be 3e 96 15 3e e0 e9 ab be fb 52 42 be
       -0.22154151 0.14608094 -0.3357687 -0.18976967
000060 a3 b8 9a be 43 95 09 3e 84 12 e7 be 44 7e 81 3d
       -0.30218992 0.13435845 -0.45131314 0.063229114
000070 14 cd 36 be 27 22 9f 3e 78 47 69 be 47 b9 bf be
       -0.17851669 0.31080744 -0.2278117 -0.37446043
000080 5b 87 b4 be a0 fa f2 bd 1a a0 c6 be 47 b2 c3 be
       -0.35259518 -0.11864209 -0.38794023 -0.38221952
000090 cc 1d c8 3d d2 de 0b 3e 25 14 89 be 27 4d 41 be
       0.09771308 0.13659218 -0.26773182 -0.18877088
0000a0 89 8e c8 bd 8b e5 13 3d 63 64 90 3e 3a 46 88 be
       -0.097928114 0.03610758 0.2820159 -0.2661608
0000b0 c5 27 26 be 0d cc d4 be 5c 24 00 3e cb 50 cc be
       -0.16226108 -0.41561928 0.1251387 -0.3990539
0000c0 c8 63 d4 bd 91 4d c2 3d 28 34 90 bc 20 ff dd bc
       -0.10370594 0.09487451 -0.017602995 -0.027099192
0000d0 37 5d 79 be 9f 01 14 3e 70 93 42 bd c9 01 84 3b
       -0.24351965 0.14453743 -0.04750389 0.004028533
0000e0 d4 be 94 3d 28 8d c2 be 6e d3 1f be 02 f0 56 3e
       0.0726296 -0.3799832 -0.15607998 0.20989993
0000f0 7e 60 a2 be 06 d7 e9 bd 5f fa f4 3d 59 9e 82 be
       -0.31714243 -0.114179656 0.11961817 -0.25511435
000100 74 f0 90 3d e9 7f 81 3e 99 8e 97 be 08 e5 82 3e
       0.07077113 0.252929 -0.2960098 0.25565362
000110 8e 80 d3 be 5e 0b 5d 3e e2 1b 93 bc 01 53 e8 be
       -0.41309017 0.21586367 -0.017957631 -0.45375827
000120 49 81 e2 3d e4 22 4d 3d 1a fb 68 be 43 55 82 3e
       0.110598154 0.050082102 -0.22752038 0.25455675
000130 7c 92 8a bd d4 35 ff bd 10 73 5e 3e fb ec 59 3e
       -0.06766221 -0.12461439 0.2172358 0.21281807
000140 04 87 1e 3e e7 7b 5f bc 95 19 3b 3e f8 31 82 bd
       0.15481192 -0.01364038 0.18271478 -0.06357187
000150 d8 8e ac 3c 27 8d 84 3e 5c 8a 8d bd 75 32 f2 be
       0.021064207 0.2588894 -0.069111556 -0.4730412
000160 ed 4c 2f be 09 b1 a6 be 72 07 aa bd 6b 0e 8b bd
       -0.17119189 -0.32556942 -0.08302201 -0.067898594
000170 87 36 20 be c0 fc 1b be fa 71 b7 be 4c 42 2d be
       -0.156458 -0.15233135 -0.35829145 -0.16919822
000180 c6 41 82 be 4b f5 1b 3e 7e 65 42 be 60 35 28 3c
       -0.25440806 0.1523029 -0.18984029 0.010266632
000190 83 b4 59 3e 67 90 b5 be 72 85 9c 3e 22 1b 9a 3e
       0.21260266 -0.35461733 0.3057056 0.30098826
0001a0 27 14 71 bd e4 d2 e8 3c 03 86 7a bc 72 81 a3 be
       -0.05885711 0.028420873 -0.01529074 -0.31934696
0001b0 98 6a dc 3c 85 36 da 3c 7e 08 84 3d 7a 63 a6 3d
       0.026906297 0.026637325 0.06446932 0.081244424
0001c0 eb 5c fa bd ac 97 6b be b9 ba a7 3e 2a 2a b6 be
       -0.12224754 -0.23007077 0.32759646 -0.35579044
0001d0 59 9c ce 3d 60 81 1f 3e f4 4b 41 be 6a dc d3 bd
       0.10088415 0.15576696 -0.1887663 -0.10344775
0001e0 db 21 08 3e 59 92 e4 3c e5 b2 f2 bd 6f 3b d5 3d
       0.13294165 0.027901815 -0.11850528 0.10411727
0001f0 df e4 57 be f8 ca b2 be 07 67 aa be 2c c0 86 3e
       -0.21083401 -0.34920478 -0.3328173 0.2631849
000200 3e e0 cd be b0 df e4 3b f1 21 3e be 83 9a 80 3e
       -0.40210146 0.0069846734 -0.18567635 0.25117883
000210 f5 da be bd a2 e6 e8 bd 20 8f 07 3d f5 3e 8c be
       -0.093191065 -0.11372115 0.03309548 -0.27391782
000220 21 2a a5 be 06 f2 ad be 36 6e a6 be b1 3c 80 be
       -0.32258704 -0.33973712 -0.3250596 -0.25046304
000230 3d bf e0 bd 98 4b 0d 3e 5d 10 16 3e dd a4 bb be
       -0.10973976 0.13798368 0.1465468 -0.36649218
000240 9a cf a3 3e a5 54 f8 3d 91 31 a3 be 04 4e 91 be
       0.31994325 0.1212552 -0.31873754 -0.28379834
000250 de 34 8f bd 91 e1 a0 bd df 74 2a 3e 29 60 80 be
       -0.069925055 -0.078555234 0.16646145 -0.25073364
000260 a3 ff 57 be e7 72 9d be fd 9a 9f be d3 68 96 be
       -0.21093611 -0.30751726 -0.31172934 -0.2937685
000270 e7 eb 6e be 1c ae 19 be 7e 42 af 3d 1a 51 3b be
       -0.23332177 -0.15007824 0.08557604 -0.18292657
000280 5f 2e e5 3d ef 4b c5 be 54 f8 12 be c2 dc 96 3e
       0.11190485 -0.38534495 -0.14352542 0.294653
000290 2b e7 3f bd 13 57 14 3d 63 e2 cc bc 29 b5 17 be
       -0.04685132 0.036215853 -0.025010293 -0.14815201
0002a0 7d 2f 6e 3e c1 54 8c be 37 72 ed 3d cc 8a 1a be
       0.23260303 -0.27408412 0.115940504 -0.1509201
0002b0 5b b7 ef 3d 5b 1c 5d be 22 9d 47 3e ae a8 d2 be
       0.11704894 -0.21592848 0.19493535 -0.41144317
0002c0 11 09 0a 3e 3a 89 a8 3e 1b c5 b7 bd bb 34 15 b9
       0.13480021 0.32917196 -0.08973142 -0.00014229391
0002d0 9d f5 24 3e 09 98 c1 be 97 0f 8a be 34 6f 54 be
       0.16109319 -0.37811306 -0.2696502 -0.20745546
0002e0 aa 5c 71 bd 39 be 9f 3e 6f 1a e0 bd 63 eb 86 3e
       -0.058926262 0.31199816 -0.10942542 0.2635146
0002f0 81 7e 65 be a8 32 bb be 4c b9 9b bd dd 68 42 3e
       -0.22411539 -0.36562085 -0.07603702 0.18985315
000300 2c ef 34 3e 0d cd 0f 3d 92 44 57 3c a1 50 cc bc
       0.17669362 0.03510766 0.013138907 -0.02494079
000310 dc cc 86 3e 7b 2c ad be b0 22 bd 3e c9 79 05 3d
       0.2632817 -0.33822998 0.36940527 0.032586847
000320 f3 00 9b be 1d 9e a4 be bc 51 74 be f7 28 4f be
       -0.30274162 -0.3215188 -0.23859304 -0.2023047
000330 d1 ef 6f 3e b4 b6 c4 bd ad 0e 9b be 64 46 b6 be
       0.23431326 -0.0960516 -0.30284634 -0.3560058
000340 67 f9 87 3e ea 7c c7 be dc 45 d0 bd fb a3 d4 3d
       0.26557466 -0.3896249 -0.101695746 0.10382839
000350 12 b6 e4 3e 1d 0e 6f 3e 9b 35 23 3e 46 e0 89 be
       0.4467016 0.23345228 0.15938418 -0.2692892
000360 64 fd 32 3e 25 16 8a 3e bc 41 1c be 8b a7 d3 be
       0.17479473 0.2697002 -0.1525945 -0.41338763
000370 83 e2 2f 3d 11 aa be be 69 37 ca be 8d 53 a8 be
       0.042940628 -0.37239125 -0.394954 -0.32876244
000380 62 f2 67 be 25 bb a5 be b9 bf c8 be a7 06 8e 3d
       -0.22651055 -0.32369342 -0.39208773 0.069348626
000390 2d 5e 78 3e 1d 90 1b 3e a3 3a e6 be af 22 8d be
       0.24254675 0.15191694 -0.4496661 -0.27565524
0003a0 26 8a ba 3c c1 17 b6 bd 76 ce 8a be 1e 93 80 3e
       0.022770952 -0.088912494 -0.27110642 0.25112242
0003b0 4e 4d 94 be 8f da ce bd 34 ce 55 3d dc d2 1e 3e
       -0.2896523 -0.101002805 0.052198604 0.15510124
0003c0 b0 09 a8 be a9 75 50 be 15 3c e2 3d 18 ec c6 3d
       -0.3281989 -0.20357384 0.11046616 0.09713
0003d0 27 6e 04 3e ed 38 71 bd f7 8a 71 3e 84 64 a5 be
       0.12932645 -0.05889218 0.23588167 -0.3230325
0003e0 b1 a9 d9 bc ff 1c b0 3e 95 fa ba be 57 2d cf 3d
       -0.026570173 0.34397122 -0.36519304 0.1011607
0003f0 91 82 78 be 51 81 09 b9 2e 85 b1 be 6d 35 b5 be
       -0.24268557 -0.00013113512 -0.3467192 -0.35392323

linear2.weight f4 [3, 256]
000000 5d f6 8c bb 80 ad 0a 3c 2a 3c 34 bd 52 e5 89 bc
       -0.0043018297 0.008464217 -0.04400269 -0.016832981
000010 20 5f 9d bc 5f d6 4f bd 82 50 b4 3c 96 9d bc 39
       -0.019210398 -0.05074155 0.022011045 0.00035975565
000020 c9 f7 56 bc 26 c6 49 3d b7 f3 c3 bb 64 c9 27 3d
       -0.0131206 0.049261235 -0.005979981 0.040963545
000030 ff 6d e1 3b 50 ce 20 bd d6 04 df 3c 1e 7f 98 bc
       0.0068795676 -0.039259255 0.027223986 -0.018615302
000040 4d 8e 2e bd a8 9b 63 bd ee 9d 08 bd d5 13 bd bc
       -0.042616177 -0.055568367 -0.03335374 -0.023080746
000050 08 7b 83 3d 62 a3 f7 3c e4 68 89 3c 68 07 5b 3d
       0.06419951 0.030229274 0.016773649 0.05347386
000060 78 21 b3 3c 61 a5 33 bd 13 45 7a bc 90 79 17 bc
       0.021866545 -0.04385889 -0.015275258 -0.009245291
000070 0f d9 8c bc fa 2e 1b 3c ec 38 a8 3a 19 45 3d bd
       -0.017193345 0.009471649 0.0012834347 -0.046208475
000080 70 e2 b6 3c 20 26 1d 3c f6 8a a0 bb 13 3a 80 3c
       0.02232477 0.009591609 -0.004899378 0.015652692
000090 41 c9 57 bc 43 e1 dd 3a 33 bd dd bc 7f 38 15 3d
       -0.013170541 0.0016928095 -0.027067756 0.036430832
0000a0 28 fc 2a 3d 9c 75 67 3d b7 8a 70 3d 18 70 4e 3c
       0.04174438 0.056508645 0.05872604 0.012599967
0000b0 58 03 be 3c 3e c9 81 bd 10 71 31 bd 4c c3 2f bd
       0.023194954 -0.06337212 -0.043320715 -0.04291086
0000c0 a8 64 c6 bc 0b 4f 37 3d b3 d6 27 bb a8 3c 7f 3d
       -0.024217919 0.044753116 -0.0025610148 0.062313706
0000d0 a0 30 16 3c e4 f2 9c bc b8 a6 9f bc 26 e0 dd ba
       0.009166867 -0.019158788 -0.019488677 -0.0016927763
0000e0 18 96 3d 3c dc 98 b1 bc cf 8a 38 3c 13 e7 ce 3c
       0.01157143 -0.021679334 0.011263563 0.02525667
0000f0 96 d6 43 3d 51 a6 56 3d ac be fc bc c7 64 b5 3d
       0.047812067 0.052404705 -0.030852638 0.088571124
000100 99 d7 25 ba 4e f0 6a bd e8 18 75 3c 56 f9 c7 3d
       -0.0006326377 -0.05735808 0.014959551 0.09764354
000110 33 ad 6d bc 9f 79 95 3c 40 65 88 bb 19 55 9c 3d
       -0.014506626 0.01824647 -0.0041624606 0.076334186
000120 e3 10 63 3d 24 0f 30 bd 10 f6 34 3d c9 eb a9 bb
       0.055436026 -0.04298319 0.044179976 -0.0051855785
000130 ab bf 13 bb e4 80 35 bb 16 e0 80 3d d4 d6 58 bc
       -0.0022544663 -0.0027695233 0.06292741 -0.013234813
000140 38 f5 33 3b a6 3c 14 bc ab 6c 0f 3d 08 33 9e 3c
       0.0027459394 -0.009047663 0.035015743 0.019311443
000150 fd fd 0e bd 64 15 0e bd 80 aa 7a bc a5 ba ac bb
       -0.03491019 -0.03468837 -0.015299439 -0.005271273
000160 64 60 43 3c ec 79 ff 3c a0 fa 81 bb e2 9c ef bc
       0.011924837 0.031186067 -0.0039666444 -0.029249612
000170 98 89 28 3d 93 44 60 3c 54 5c 28 3c c6 e5 89 ba
       0.041146845 0.013688224 0.010275919 -0.0010520748
000180 20 a3 2c 3b 22 74 91 3b b4 dd cf 3c 7c 26 36 bd
       0.0026342347 0.004438893 0.025374271 -0.044470295
000190 17 12 dc bc a1 53 ef bc 17 a5 65 bd 83 1c 5d 3a
       -0.026864095 -0.029214682 -0.056065645 0.00084347295
0001a0 5a 23 e9 bc 02 af c0 3c d6 95 b9 bc d1 1f 21 3d
       -0.02845924 0.02352095 -0.022654455 0.039336983
0001b0 50 ec 7a 3c a2 e3 b3 bc d3 bb 09 3d a4 fa 70 bd
       0.01531513 -0.02195913 0.03362639 -0.05883278
0001c0 e1 78 a1 3c a0 15 38 bd f2 4f 06 3d 18 6a e3 bc
       0.01971096 -0.0449425 0.032791086 -0.02776055
0001d0 62 00 c9 3d aa 34 84 3b 78 93 67 bd 3b c9 88 bc
       0.09814526 0.0040345984 -0.05653712 -0.016697517
0001e0 43 c6 f4 bc a0 8a 31 bd 39 78 fd 3d f2 dd 7d 3d
       -0.029879695 -0.043345094 0.12376446 0.06197924
0001f0 74 ff e9 3c e0 f0 b5 3c 3f 27 03 bd 4b 5d 4a 3d
       0.028564192 0.022209585 -0.03201985 0.049405377
000200 70 89 7e 3d f0 06 24 bb 10 dc 12 bd 92 5e 82 bd
       0.06214279 -0.002502855 -0.0358544 -0.06365694
000210 91 a4 ab 3c 75 1c 2c bd 01 7a 1d bd 85 84 3e bc
       0.020952495 -0.042019326 -0.03844643 -0.011628275
000220 08 10 09 3c 2e 06 e6 bc 29 85 95 bc b4 a0 82 bd
       0.008365639 -0.028079119 -0.018251972 -0.06378308
000230 42 d7 a9 bb 68 1f 8a 3d 65 aa c0 3b 30 1e 8a bc
       -0.0051831314 0.067442715 0.0058796876 -0.016860098
000240 b9 7d 57 3d 8f 70 1e 3d 64 a8 d0 3c f2 04 7c 3d
       0.052610133 0.038681563 0.02547092 0.061528154
000250 58 7d 1e 3d ae 01 17 bb 46 5f 1c 3d 26 e9 d7 bb
       0.038693756 -0.0023041773 0.038176797 -0.0065890728
000260 d4 e7 50 bd 00 bf 35 bd d7 b1 42 3c c9 69 7a 3c
       -0.05100234 -0.044371605 0.011883221 0.01528401
000270 22 71 22 bd 89 31 b8 3c 71 34 19 bd 4c c1 75 bd
       -0.039658673 0.022484558 -0.037403528 -0.059998795
000280 a0 1d a9 3b 7a 47 3a 3c 5c 18 5c bd 0c 09 03 bd
       0.0051610023 0.01136958 -0.05373417 -0.03199105
000290 90 60 90 3d 0d 1b 9e 3c ba 46 0c bd 11 fd 6a 3d
       0.07049668 0.019300008 -0.034247138 0.05737025
0002a0 12 df 52 3b e5 0a e4 3c 2f 98 8d 3c 66 ec 42 bb
       0.0032176417 0.027837226 0.01728448 -0.0029742955
0002b0 6c bf 8c bd 39 13 b0 3d d6 2a 0c 3d 91 17 5e 3c
       -0.06872448 0.085974164 0.03422054 0.013555423
0002c0 ab 2b fa 3c 73 5a 72 3d 54 02 13 bc e1 81 a1 3d
       0.0305384 0.05916829 -0.008972723 0.078861006
0002d0 59 fb d7 bc 20 9f d7 3b 4d fa 54 bc 04 da 02 3d
       -0.02636497 0.0065802485 -0.0129991295 0.031946197
0002e0 bc 76 6e 3d 1e b3 c5 3b 16 32 69 3d 27 ed c9 3b
       0.058218703 0.0060333153 0.05693253 0.006162304
0002f0 cc c6 a1 3c fc 84 66 3d 6a be 41 bd 92 f1 3e bc
       0.019748114 0.056279168 -0.047300734 -0.011654275
000300 ce 14 04 3c 54 87 1f bd 91 ac 9b bb d1 12 27 3e
       0.008061601 -0.03894742 -0.004750796 0.16315772
000310 1e d6 fb 3b 3a 4e 8f bc 6f f0 3b bd d3 c1 f6 3d
       0.007685437 -0.017493356 -0.045883592 0.12048688
000320 71 c5 99 bb 06 60 fa 3b 4a 02 d1 3c 08 9b bf 3a
       -0.0046927263 0.0076408414 0.025513787 0.0014618346
000330 69 25 c4 bc d2 56 0e 3d e3 76 fa 3c 4f 75 37 bc
       -0.02394362 0.034750767 0.030574268 -0.011197402
000340 c6 c5 cb 3d 66 0f 7e 3c f8 ac 7b bc 9f 11 6e bc
       0.09949832 0.015506601 -0.015361063 -0.014530568
000350 11 70 8c 3d 1f f7 f6 3c 66 f3 b5 bb c0 e8 51 bc
       0.068573125 0.030147133 -0.005552697 -0.01281184
000360 85 60 3b 3d d8 a1 d4 bc 26 c0 1a 3d 2d 47 94 bc
       0.045746345 -0.02595608 0.037780903 -0.018100346
000370 d2 1a d6 bc 05 b1 13 3c 30 8c 00 bd ac 3f 1c bb
       -0.026135836 0.009014373 -0.031383693 -0.0023841662
000380 f6 0f 1a bd e6 82 05 bd fa 3c 02 bc 32 98 0e bd
       -0.037612878 -0.032595538 -0.007949108 -0.034813114
000390 0d c0 13 bd 41 9d ad 3c d4 6c bc bb 3f 43 32 bd
       -0.036071826 0.021193149 -0.005750278 -0.043521162
0003a0 6b 92 43 3d f6 26 b7 b8 ec e6 3b 3d 08 4c 71 bc
       0.047747057 -8.733377e-05 0.04587452 -0.0147276
0003b0 88 36 26 3d 55 8a 79 bc 69 c3 92 3d ac ee ef bc
       0.04057935 -0.015230735 0.07166178 -0.029288612
0003c0 40 ac a7 ba e2 1e 1a 3d a8 7f 65 3c 7b 3f 91 3c
       -0.0012792423 0.03762711 0.014007486 0.017730465
0003d0 aa dd 3e bc d0 4d 4b bd 8b e6 0a bd 7f 9a 6c bc
       -0.0116495285 -0.049634755 -0.03391127 -0.014441132
0003e0 c4 43 4f bc 9b 2e 73 3d e1 84 c6 bc 13 2e 2b bd
       -0.012650434 0.05937062 -0.024233283 -0.041791987
0003f0 67 32 17 bc c4 da 1d bd 44 20 6d 3d 7e fa 33 bd
       -0.009228325 -0.03853871 0.0578921 -0.04394006

linear2.bias f4 [3]
000000 d7 f7 d6 3c d6 2b ab 3c a3 8f 13 3d
       0.026241226 0.020894926 0.036025655
